model.py file --> https://github.com/eva7wandb/Eva7_Weights_Heist/blob/main/S7/models/model_v7.py


#######################################################################

torchsummary --> 
----------------------------------------------------------------
        Layer (type)               Output Shape         Param #
================================================================
            Conv2d-1           [-1, 32, 32, 32]             864
              ReLU-2           [-1, 32, 32, 32]               0
       BatchNorm2d-3           [-1, 32, 32, 32]              64
           Dropout-4           [-1, 32, 32, 32]               0
            Conv2d-5           [-1, 64, 32, 32]          18,432
              ReLU-6           [-1, 64, 32, 32]               0
       BatchNorm2d-7           [-1, 64, 32, 32]             128
           Dropout-8           [-1, 64, 32, 32]               0
        conv_block-9           [-1, 64, 32, 32]               0
           Conv2d-10           [-1, 32, 16, 16]          18,464
           Conv2d-11           [-1, 32, 16, 16]           1,056
             ReLU-12           [-1, 32, 16, 16]               0
      BatchNorm2d-13           [-1, 32, 16, 16]              64
 transition_block-14           [-1, 32, 16, 16]               0
           Conv2d-15           [-1, 32, 16, 16]             288
           Conv2d-16           [-1, 32, 16, 16]             288
           Conv2d-17           [-1, 64, 16, 16]           2,048
           Conv2d-18           [-1, 64, 16, 16]           2,048
             ReLU-19           [-1, 64, 16, 16]               0
      BatchNorm2d-20           [-1, 64, 16, 16]             128
depthwise_separable_block-21           [-1, 64, 16, 16]               0
           Conv2d-22             [-1, 64, 9, 9]          36,928
           Conv2d-23             [-1, 64, 9, 9]           4,160
             ReLU-24             [-1, 64, 9, 9]               0
      BatchNorm2d-25             [-1, 64, 9, 9]             128
 transition_block-26             [-1, 64, 9, 9]               0
           Conv2d-27             [-1, 32, 9, 9]          18,432
             ReLU-28             [-1, 32, 9, 9]               0
      BatchNorm2d-29             [-1, 32, 9, 9]              64
          Dropout-30             [-1, 32, 9, 9]               0
           Conv2d-31             [-1, 64, 9, 9]          18,432
             ReLU-32             [-1, 64, 9, 9]               0
      BatchNorm2d-33             [-1, 64, 9, 9]             128
          Dropout-34             [-1, 64, 9, 9]               0
       conv_block-35             [-1, 64, 9, 9]               0
           Conv2d-36             [-1, 32, 9, 9]          18,464
           Conv2d-37             [-1, 64, 9, 9]           2,112
             ReLU-38             [-1, 64, 9, 9]               0
      BatchNorm2d-39             [-1, 64, 9, 9]             128
dilated_conv_block-40             [-1, 64, 9, 9]               0
           Conv2d-41             [-1, 32, 5, 5]          18,464
           Conv2d-42             [-1, 32, 5, 5]           1,056
             ReLU-43             [-1, 32, 5, 5]               0
      BatchNorm2d-44             [-1, 32, 5, 5]              64
 transition_block-45             [-1, 32, 5, 5]               0
           Conv2d-46             [-1, 32, 5, 5]           9,216
             ReLU-47             [-1, 32, 5, 5]               0
      BatchNorm2d-48             [-1, 32, 5, 5]              64
          Dropout-49             [-1, 32, 5, 5]               0
           Conv2d-50             [-1, 32, 5, 5]           9,216
             ReLU-51             [-1, 32, 5, 5]               0
      BatchNorm2d-52             [-1, 32, 5, 5]              64
          Dropout-53             [-1, 32, 5, 5]               0
       conv_block-54             [-1, 32, 5, 5]               0
           Conv2d-55             [-1, 10, 5, 5]             330
        AvgPool2d-56             [-1, 10, 1, 1]               0
================================================================
Total params: 181,322
Trainable params: 181,322
Non-trainable params: 0
----------------------------------------------------------------
Input size (MB): 0.01
Forward/backward pass size (MB): 5.30
Params size (MB): 0.69
Estimated Total Size (MB): 6.01
----------------------------------------------------------------


#######################################################################
…
